best_tunable_cnn.pth (torch, 606886 bytes, 16 tensors)

conv1.weight f4 [64, 3, 3, 3]
0	0x3dbfbc7e	0.09362124
1	0x3e34135b	0.17585509
2	0x3e3c8e08	0.18413556
3	0xbca3b336	-0.019982915
4	0xbe322bb5	-0.17399485
5	0xbd6cb550	-0.0577901
6	0xbe3c2dc7	-0.18376838
7	0xbe04d53a	-0.12971964
8	0x3e2a10d1	0.16607977
9	0x3d8cefba	0.06881662
10	0xbdf3b4e7	-0.11899739
11	0x3d6dac59	0.05802569
12	0xbe43ae55	-0.19109471
13	0x3cd04d5f	0.025427518
14	0xbe0aa953	-0.13541155
15	0xbe10f317	-0.14155231
16	0x3d166ae8	0.036723047
17	0xbe3fb15c	-0.18720001
18	0x3dbc937b	0.09207817
19	0x3e11b72b	0.1423003
20	0x3db5421c	0.088505
21	0xbe328134	-0.174321
22	0x3dabb365	0.08383826
23	0x3cf9423e	0.030427095
24	0x3c97b3c1	0.01851833
25	0xbd36e51c	-0.04465209
26	0x3d91af53	0.071135186
27	0xbe08c847	-0.1335765
28	0xbab005ce	-0.0013429464
29	0xbd811b33	-0.06304016
30	0xbdfeb967	-0.124377064
31	0xbdf49954	-0.119433075
32	0xbe22dc19	-0.15904273
33	0x3e052f64	0.1300636
34	0x3e3bd19e	0.18341681
35	0x3dc35ae3	0.0953882
36	0xbdc12c5f	-0.09432291
37	0xbd37b53f	-0.044850584
38	0xbe1d90d1	-0.15387274
39	0x3d3727ad	0.044715572
40	0xbe0a7cd5	-0.13524182
41	0xbdd51d04	-0.10405925
42	0x3d88f685	0.06687645
43	0xbdc8b515	-0.09800164
44	0xbe329bf8	-0.1744231
45	0xbe32d7e0	-0.17465162
46	0x3def38f6	0.11680786
47	0x3d319349	0.043353353
48	0xbd93c41c	-0.07215139
49	0x3e2995ed	0.16561098
50	0xbe2330a7	-0.15936528
51	0xbc897b6b	-0.016782483
52	0xbe3bc986	-0.18338594
53	0xbce56da7	-0.028006388
54	0x3e09381c	0.1340031
55	0x3e0f23c1	0.13978483
56	0xbe23c23c	-0.15992063
57	0x3d44bbf9	0.048030827
58	0x3e11bf26	0.14233074
59	0x3e395324	0.18098122
60	0x3e29d102	0.16583636
61	0x3e19a064	0.1500259
62	0xbcca6cbf	-0.024710057
63	0xbde251df	-0.11050772
64	0x3cae0c31	0.021246048
65	0xbd414f44	-0.047194734
66	0x3e2a9883	0.16659741
67	0xbe1b71b9	-0.151801
68	0x3e2c1be6	0.16807517
69	0x3d95f511	0.07322133
70	0xbdd3b239	-0.10336728
71	0x3e2c5491	0.16829135
72	0xbe19e504	-0.15028769
73	0xbd959611	-0.073040135
74	0x3de788b1	0.11305369
75	0xbd8ab2b1	-0.06772364
76	0x3e0268cf	0.12735294
77	0xbd6b3510	-0.05742365
78	0xbdb611d0	-0.08890116
79	0xbc9fe08e	-0.019516256
80	0xbe436c47	-0.19084273
81	0xbde38a0c	-0.11110315
82	0x3c76675e	0.015039293
83	0xbc3b8b01	-0.011446715
84	0xbe2e2887	-0.17007647
85	0xbdbbab88	-0.09163576
86	0xbe349a00	-0.17636871
87	0x3e35e9fa	0.17765036
88	0x3d458b81	0.048228744
89	0x3e29079f	0.16506813
90	0x3e3acbab	0.18241756
91	0xbe4445cc	-0.1916725
92	0x3d6da09c	0.058014497
93	0xbdd0bfc2	-0.10192825
94	0xbd9a992b	-0.07548746
95	0xbdaf1aba	-0.085500196
96	0x3d327dd6	0.043577038
97	0x3e202f25	0.15642984
98	0x3e0d4a79	0.1379794
99	0xbe13d518	-0.14436758
100	0xbd9f22c0	-0.077703
101	0xbe0a59c3	-0.13510804
102	0xbdec54bd	-0.115396
103	0xbe3430a1	-0.17596675
104	0x3cc3a4d9	0.023882316
105	0x3dd96d4e	0.10616551
106	0xbaebd6ac	-0.0017993054
107	0x3dfa3cf8	0.1221866
108	0xbd7fe13f	-0.06247067
109	0x3d2d1ced	0.042263914
110	0x3db0e35a	0.08637114
111	0x3e3ba5cc	0.18324965
112	0x3df61d5b	0.12017318
113	0xbe2143cc	-0.15748519
114	0xbd9a0f10	-0.07522404
115	0xbd655bf2	-0.05599589
116	0xbe2a199c	-0.16611332
117	0xbe1a6969	-0.15079273
118	0xbdec4328	-0.115362465
119	0x3e2957c4	0.16537386
120	0xbdb41c25	-0.08794431
121	0x3d804e0c	0.06264886
122	0x3da9204a	0.08258112
123	0x3d97c6a4	0.074109346
124	0xbe10a8bd	-0.14126869
125	0x3da33708	0.07969481
126	0xbd8398aa	-0.06425603
127	0x3e0d3222	0.13788655
128	0x3d9a69e6	0.0753973
129	0xbdffb2b0	-0.12485254
130	0xbbff04a7	-0.007782537
131	0xbe023839	-0.1271676
132	0x3e08bcec	0.13353318
133	0xbd352a1d	-0.044229615
134	0x3e3a087e	0.18167302
135	0xbe1401ec	-0.14453858
136	0x3e21d999	0.15805663
137	0xbd93bd13	-0.072137974
138	0x3de0ed1a	0.109827235
139	0x3dc38356	0.09546535
140	0xbe07c3ed	-0.13258334
141	0xbddbadef	-0.107265346
142	0xbd81855f	-0.06324267
143	0xbae1fd94	-0.001724171
144	0x3e1f34b5	0.1554745
145	0xbdd660fe	-0.104677185
146	0xbe439a46	-0.1910182
147	0x3d1ace99	0.037794683
148	0xbdb75873	-0.08952417
149	0x3da01abc	0.07817599
150	0x3dda90b9	0.10672135
151	0x3d950de9	0.07278044
152	0xbd1d4fb2	-0.03840608
153	0x3da826c8	0.08210522
154	0xbe06a2c4	-0.13148028
155	0xbe12290d	-0.14273472
156	0xbc929691	-0.017894061
157	0xbd09a4fc	-0.033604607
158	0x3da17c2e	0.078850135
159	0xbe2402a2	-0.1601663
160	0xbd900189	-0.07031543
161	0xbde36248	-0.1110273
162	0xbb22ea3f	-0.002485886
163	0xbd9ce4bb	-0.076608144
164	0x3d34f42e	0.04417818
165	0x3dc1dcf2	0.0946597
166	0xbdc47d26	-0.09594183
167	0x3e249ce0	0.16075468
168	0x3d9ee011	0.07757581
169	0xbde043b6	-0.10950415
170	0xbe0120c4	-0.12610155
171	0xbde90cb8	-0.11379379
172	0x3dd30134	0.10302964
173	0xbd0e7700	-0.034781456
174	0xbe360f74	-0.17779332
175	0x3dec4953	0.11537423
176	0x3c99e7d3	0.0187873
177	0xbca7b15c	-0.020470314
178	0xbe413a67	-0.18869935
179	0xbc3fcde9	-0.011706808
180	0xbd5a9082	-0.05336047
181	0xbe30a6f6	-0.1725119
182	0xbdf3e6b9	-0.11909241
183	0xbbfeac83	-0.00777203
184	0xbe19b575	-0.15010627
185	0x3dbd99b5	0.09257833
186	0x3d541b06	0.051783584
187	0xbe412cb7	-0.18864714
188	0x3d66a81d	0.05631267
189	0x3e0b92ad	0.13630171
190	0xbe385ad9	-0.18003406
191	0x3dc49093	0.09597888
192	0x3c966867	0.01836033
193	0x3e27183d	0.1631784
194	0xbdc4b12f	-0.096041076
195	0xbd8f6fbe	-0.07003735
196	0x3e0bba1c	0.13645214
197	0x3db02859	0.08601446
198	0x3d9b1bf0	0.07573688
199	0x3bd2ea91	0.006436654
200	0xbe16c63b	-0.14724056
201	0xbe326076	-0.1741961
202	0x3d340734	0.043952182
203	0xbd1a1dee	-0.0376262
204	0x3d7f54e7	0.06233683
205	0x3dffc40b	0.12488564
206	0x3dc730c4	0.09726098
207	0x3e1b05e3	0.15138964
208	0xbc3c73f7	-0.011502258
209	0xbdfb1599	-0.12259979
210	0x3d5be3b3	0.053683948
211	0xbdc7c63e	-0.097546086
212	0xbe068d59	-0.13139857
213	0x3c98d2bf	0.018655179
214	0x3c04b18f	0.008098974
215	0xbd05c8d4	-0.032662228
216	0x3d275ddd	0.040861
217	0xbe1d8c70	-0.15385604
218	0xbdbdae1e	-0.09261726
219	0x3c98ca60	0.018651187
220	0xbda4b20d	-0.08041773
221	0x3c6109be	0.013735233
222	0x3ddf637f	0.10907649
223	0xbd2ba5a0	-0.041906
224	0x3e0c28b7	0.13687406
225	0xbd75add2	-0.05998022
226	0xbdb65634	-0.08903161
227	0xbd8b1a9b	-0.06792184
228	0x3e325bf8	0.17417896
229	0x3da4a515	0.080392994
230	0x3d8f85f5	0.07007972
231	0xbdc7e409	-0.09760291
232	0x3e3f8127	0.18701611
233	0x3d616124	0.05502428
234	0xbdd9edec	-0.10641083
235	0xbda585b2	-0.08082141
236	0x3dbb3c3f	0.091423504
237	0xbdcd3de8	-0.10021573
238	0xbd9bc872	-0.07606591
239	0x3e41e41a	0.1893467
240	0x3d0ce2f4	0.034396127
241	0x3e038794	0.12844688
242	0x3dfaa357	0.12238186
243	0xbda9eb2b	-0.08296808
244	0xbdff6ff1	-0.12472523
245	0xbdb4477b	-0.08802696
246	0xbd6b50b4	-0.05745001
247	0x3e3f58e2	0.1868625
248	0x3e3ff8cf	0.18747257
249	0xbde3a79d	-0.11115954
250	0x3c9e568f	0.019328384
251	0xbda43b6e	-0.08019148
252	0x3e03fbc1	0.12889005
253	0x3d15c796	0.036567293
254	0xbce9f5ca	-0.028559584
255	0xbc08f3ca	-0.008358905

conv1.bias f4 [64]
0	0xbdecc684	-0.11561301
1	0x3ddd06ac	0.10792288
2	0xbe1000a0	-0.14062738
3	0xbc867132	-0.016411398
4	0xbdbd6658	-0.09248036
5	0x3daf34c4	0.08554986
6	0xbe3e6eb6	-0.1859692
7	0xbe2666c8	-0.16250145
8	0xbdf707f1	-0.120620616
9	0x3df04e74	0.11733714
10	0x3e11382e	0.14181587
11	0xbe184317	-0.14869343
12	0xbe0748fd	-0.13211437
13	0x3e338c73	0.17534046
14	0x3d2efe8e	0.04272323
15	0x3c7de522	0.015496524
16	0x3d11abae	0.035564117
17	0xbdf03737	-0.117292814
18	0xbdbf0e3a	-0.093288854
19	0x3e3e31e3	0.18573718
20	0x3e42c626	0.190209
21	0xbe285f54	-0.16442615
22	0x3e277fc5	0.16357334
23	0xbd8e7b0e	-0.069570646
24	0xbdd03706	-0.10166745
25	0x3e020af6	0.12699494
26	0x3e3c3dd2	0.18382958
27	0x3d00e901	0.03147221
28	0x3d964b8f	0.073386304
29	0x3dc66a1f	0.0968821
30	0x3dafffd7	0.085937195
31	0x3e09e40b	0.13465898
32	0x3e444fc6	0.19171056
33	0xbe3df271	-0.18549515
34	0x3e025099	0.12726058
35	0x3d9a5c2d	0.075371124
36	0xbdbc1ea3	-0.09185531
37	0x3c045e6b	0.008079152
38	0x3df57746	0.1198564
39	0x3d2e3149	0.04252747
40	0xbb95ec52	-0.0045752907
41	0xbdd24e15	-0.10268799
42	0xbdd64ebf	-0.104642384
43	0xbd9e297e	-0.07722758
44	0x3e1aaae3	0.1510425
45	0x3aaeb567	0.0013329209
46	0x3c771931	0.01508169
47	0x3dfb4457	0.12268894
48	0xbdceb616	-0.10093324
49	0xbd9b3022	-0.0757754
50	0x3dc7ccaa	0.097558334
51	0xbce948ba	-0.028477062
52	0xbdd36345	-0.103216685
53	0x3e0bf3f8	0.13667285
54	0xba9cda54	-0.0011966922
55	0xbe409edb	-0.18810599
56	0x3db876b8	0.09007019
57	0xbe2f7e4f	-0.17138027
58	0x3bb34ac5	0.0054715597
59	0x3ca6b78f	0.0203512
60	0x3d6ae0b9	0.05734322
61	0xbd1c49c0	-0.03815627
62	0x3d959a66	0.0730484
63	0xbd6de204	-0.058076873

bn1.weight f4 [64]
0	0x3f800000	1.0
1	0x3f800000	1.0
2	0x3f800000	1.0
3	0x3f800000	1.0
4	0x3f800000	1.0
5	0x3f800000	1.0
6	0x3f800000	1.0
7	0x3f800000	1.0
8	0x3f800000	1.0
9	0x3f800000	1.0
10	0x3f800000	1.0
11	0x3f800000	1.0
12	0x3f800000	1.0
13	0x3f800000	1.0
14	0x3f800000	1.0
15	0x3f800000	1.0
16	0x3f800000	1.0
17	0x3f800000	1.0
18	0x3f800000	1.0
19	0x3f800000	1.0
20	0x3f800000	1.0
21	0x3f800000	1.0
22	0x3f800000	1.0
23	0x3f800000	1.0
24	0x3f800000	1.0
25	0x3f800000	1.0
26	0x3f800000	1.0
27	0x3f800000	1.0
28	0x3f800000	1.0
29	0x3f800000	1.0
30	0x3f800000	1.0
31	0x3f800000	1.0
32	0x3f800000	1.0
33	0x3f800000	1.0
34	0x3f800000	1.0
35	0x3f800000	1.0
36	0x3f800000	1.0
37	0x3f800000	1.0
38	0x3f800000	1.0
39	0x3f800000	1.0
40	0x3f800000	1.0
41	0x3f800000	1.0
42	0x3f800000	1.0
43	0x3f800000	1.0
44	0x3f800000	1.0
45	0x3f800000	1.0
46	0x3f800000	1.0
47	0x3f800000	1.0
48	0x3f800000	1.0
49	0x3f800000	1.0
50	0x3f800000	1.0
51	0x3f800000	1.0
52	0x3f800000	1.0
53	0x3f800000	1.0
54	0x3f800000	1.0
55	0x3f800000	1.0
56	0x3f800000	1.0
57	0x3f800000	1.0
58	0x3f800000	1.0
59	0x3f800000	1.0
60	0x3f800000	1.0
61	0x3f800000	1.0
62	0x3f800000	1.0
63	0x3f800000	1.0

bn1.bias f4 [64]
0	0x00000000	0.0
1	0x00000000	0.0
2	0x00000000	0.0
3	0x00000000	0.0
4	0x00000000	0.0
5	0x00000000	0.0
6	0x00000000	0.0
7	0x00000000	0.0
8	0x00000000	0.0
9	0x00000000	0.0
10	0x00000000	0.0
11	0x00000000	0.0
12	0x00000000	0.0
13	0x00000000	0.0
14	0x00000000	0.0
15	0x00000000	0.0
16	0x00000000	0.0
17	0x00000000	0.0
18	0x00000000	0.0
19	0x00000000	0.0
20	0x00000000	0.0
21	0x00000000	0.0
22	0x00000000	0.0
23	0x00000000	0.0
24	0x00000000	0.0
25	0x00000000	0.0
26	0x00000000	0.0
27	0x00000000	0.0
28	0x00000000	0.0
29	0x00000000	0.0
30	0x00000000	0.0
31	0x00000000	0.0
32	0x00000000	0.0
33	0x00000000	0.0
34	0x00000000	0.0
35	0x00000000	0.0
36	0x00000000	0.0
37	0x00000000	0.0
38	0x00000000	0.0
39	0x00000000	0.0
40	0x00000000	0.0
41	0x00000000	0.0
42	0x00000000	0.0
43	0x00000000	0.0
44	0x00000000	0.0
45	0x00000000	0.0
46	0x00000000	0.0
47	0x00000000	0.0
48	0x00000000	0.0
49	0x00000000	0.0
50	0x00000000	0.0
51	0x00000000	0.0
52	0x00000000	0.0
53	0x00000000	0.0
54	0x00000000	0.0
55	0x00000000	0.0
56	0x00000000	0.0
57	0x00000000	0.0
58	0x00000000	0.0
59	0x00000000	0.0
60	0x00000000	0.0
61	0x00000000	0.0
62	0x00000000	0.0
63	0x00000000	0.0

bn1.running_mean f4 [64]
0	0x00000000	0.0
1	0x00000000	0.0
2	0x00000000	0.0
3	0x00000000	0.0
4	0x00000000	0.0
5	0x00000000	0.0
6	0x00000000	0.0
7	0x00000000	0.0
8	0x00000000	0.0
9	0x00000000	0.0
10	0x00000000	0.0
11	0x00000000	0.0
12	0x00000000	0.0
13	0x00000000	0.0
14	0x00000000	0.0
15	0x00000000	0.0
16	0x00000000	0.0
17	0x00000000	0.0
18	0x00000000	0.0
19	0x00000000	0.0
20	0x00000000	0.0
21	0x00000000	0.0
22	0x00000000	0.0
23	0x00000000	0.0
24	0x00000000	0.0
25	0x00000000	0.0
26	0x00000000	0.0
27	0x00000000	0.0
28	0x00000000	0.0
29	0x00000000	0.0
30	0x00000000	0.0
31	0x00000000	0.0
32	0x00000000	0.0
33	0x00000000	0.0
34	0x00000000	0.0
35	0x00000000	0.0
36	0x00000000	0.0
37	0x00000000	0.0
38	0x00000000	0.0
39	0x00000000	0.0
40	0x00000000	0.0
41	0x00000000	0.0
42	0x00000000	0.0
43	0x00000000	0.0
44	0x00000000	0.0
45	0x00000000	0.0
46	0x00000000	0.0
47	0x00000000	0.0
48	0x00000000	0.0
49	0x00000000	0.0
50	0x00000000	0.0
51	0x00000000	0.0
52	0x00000000	0.0
53	0x00000000	0.0
54	0x00000000	0.0
55	0x00000000	0.0
56	0x00000000	0.0
57	0x00000000	0.0
58	0x00000000	0.0
59	0x00000000	0.0
60	0x00000000	0.0
61	0x00000000	0.0
62	0x00000000	0.0
63	0x00000000	0.0

bn1.running_var f4 [64]
0	0x3f800000	1.0
1	0x3f800000	1.0
2	0x3f800000	1.0
3	0x3f800000	1.0
4	0x3f800000	1.0
5	0x3f800000	1.0
6	0x3f800000	1.0
7	0x3f800000	1.0
8	0x3f800000	1.0
9	0x3f800000	1.0
10	0x3f800000	1.0
11	0x3f800000	1.0
12	0x3f800000	1.0
13	0x3f800000	1.0
14	0x3f800000	1.0
15	0x3f800000	1.0
16	0x3f800000	1.0
17	0x3f800000	1.0
18	0x3f800000	1.0
19	0x3f800000	1.0
20	0x3f800000	1.0
21	0x3f800000	1.0
22	0x3f800000	1.0
23	0x3f800000	1.0
24	0x3f800000	1.0
25	0x3f800000	1.0
26	0x3f800000	1.0
27	0x3f800000	1.0
28	0x3f800000	1.0
29	0x3f800000	1.0
30	0x3f800000	1.0
31	0x3f800000	1.0
32	0x3f800000	1.0
33	0x3f800000	1.0
34	0x3f800000	1.0
35	0x3f800000	1.0
36	0x3f800000	1.0
37	0x3f800000	1.0
38	0x3f800000	1.0
39	0x3f800000	1.0
40	0x3f800000	1.0
41	0x3f800000	1.0
42	0x3f800000	1.0
43	0x3f800000	1.0
44	0x3f800000	1.0
45	0x3f800000	1.0
46	0x3f800000	1.0
47	0x3f800000	1.0
48	0x3f800000	1.0
49	0x3f800000	1.0
50	0x3f800000	1.0
51	0x3f800000	1.0
52	0x3f800000	1.0
53	0x3f800000	1.0
54	0x3f800000	1.0
55	0x3f800000	1.0
56	0x3f800000	1.0
57	0x3f800000	1.0
58	0x3f800000	1.0
59	0x3f800000	1.0
60	0x3f800000	1.0
61	0x3f800000	1.0
62	0x3f800000	1.0
63	0x3f800000	1.0

conv2.weight f4 [128, 64, 3, 3]
0	0x3be908a0	0.007111624
1	0x3d2150da	0.039383747
2	0x3c843533	0.016138649
3	0xbcf19563	-0.029490178
4	0x3ce715e8	0.028208688
5	0xbd0d42d7	-0.03448757
6	0xbc87cde3	-0.016577667
7	0xbd257c64	-0.04040183
8	0xbcb8dc26	-0.022565912
9	0x3d23b1d2	0.039964505
10	0x3bb49760	0.0055112094
11	0xbc9886c6	-0.018618952
12	0x3c1d0226	0.009583032
13	0xbc8a65e0	-0.01689428
14	0x3c15e860	0.009149641
15	0xbccf0533	-0.025271034
16	0xbb5dfa56	-0.0033871136
17	0x3b3d1696	0.0028852574
18	0xbb12c380	-0.002239436
19	0xbc68e3a6	-0.014214432
20	0x3cfb6076	0.030685645
21	0x3d2698fa	0.040673234
22	0x3cac7108	0.021049991
23	0xbd22b5d4	-0.039724186
24	0x3cbed6a8	0.023295715
25	0xbc3688e0	-0.011141032
26	0xbc7a46fb	-0.015275712
27	0xbbbc0b2b	-0.005738636
28	0xbcb77de0	-0.022398889
29	0x3cbec6a8	0.023288086
30	0x3bfa1ce0	0.0076328367
31	0x3cb98e80	0.022650957
32	0x3cd9e4b6	0.026598316
33	0xbcf0882e	-0.02936181
34	0x3d0fbf2f	0.035094436
35	0xbcf802ae	-0.030274715
36	0x3ca81276	0.020516615
37	0xbc6198e6	-0.013769364
38	0x3cfa0f28	0.030524805
39	0xbc81581e	-0.015789088
40	0xbc2cd816	-0.010549566
41	0xbb1299c0	-0.0022369474
42	0xbd16692e	-0.0367214
43	0xba097b56	-0.0005244514
44	0xbbd39260	-0.0064566582
45	0xbd04add4	-0.032392338
46	0xbce92e28	-0.028464392
47	0x3c822043	0.015884524
48	0x3d041354	0.032244995
49	0xbc3e3c20	-0.011611015
50	0x3d005b7e	0.031337254
51	0x3ba3ff56	0.0050048037
52	0xbcf5b303	-0.029992586
53	0xbc963df0	-0.018340081
54	0x3cd0dcd3	0.025495922
55	0x3d19cfe2	0.037551768
56	0x3b2b43c0	0.0026132911
57	0xbd247c7b	-0.040157776
58	0xbca25288	-0.019814745
59	0x3d16d39e	0.036822908
60	0x3bf79cd6	0.007556538
61	0x3b8bcceb	0.0042663715
62	0x3c59e2f6	0.013298741
63	0x3b84a656	0.004048149
64	0x3d212f72	0.039351888
65	0x3b418940	0.002953127
66	0x3d2260a4	0.039642945
67	0x3d1a2de4	0.03764142
68	0x3c86be98	0.016448304
69	0xbd16367b	-0.03667305
70	0xbcf7e21e	-0.030259188
71	0xbbe6af6b	-0.0070399544
72	0x3cacfb3e	0.021115895
73	0x3ce87af6	0.028378945
74	0xbd23a360	-0.03995073
75	0x3d1f268e	0.038855128
76	0x3cf7b3ee	0.030237164
77	0x3b006280	0.001958996
78	0xbc8722c0	-0.016496062
79	0xbd02a07c	-0.03189133
80	0xbc75dbe6	-0.015006041
81	0xbcb161f6	-0.021653157
82	0x3c88bab3	0.016690588
83	0x3bb92a0b	0.005650764
84	0xbb901980	-0.004397571
85	0xbc3537cb	-0.011060665
86	0xbc639a1b	-0.013891722
87	0x3d073942	0.03301359
88	0x3d213a32	0.03936214
89	0xbac815ab	-0.0015265247
90	0x3c6eae06	0.014567858
91	0x3c90a76e	0.017657962
92	0x3d114ece	0.035475545
93	0xbd172fb3	-0.036910724
94	0x3ac7bf2b	0.0015239468
95	0x3caadf00	0.020858288
96	0x3d264e26	0.040601872
97	0xbb3de180	-0.002897352
98	0xbc188166	-0.009308195
99	0x3ce3e2fe	0.0278182
100	0xbb8b8c8b	-0.0042586974
101	0xbc6d1950	-0.014471367
102	0x3c107d8b	0.008818994
103	0xbbc94a96	-0.0061429245
104	0xbafcc4ab	-0.0019284686
105	0xbcdd4c28	-0.027013853
106	0x3d06221e	0.03274738
107	0x3cc7ee56	0.02440564
108	0xbcb24170	-0.021759719
109	0xbd0b78cb	-0.034050744
110	0x3d0df7b7	0.034660067
111	0xbb70a396	-0.0036718599
112	0x3c7cfe8b	0.015441547
113	0xbbcc5fc0	-0.006237
114	0x3d2228f8	0.039589852
115	0x3b6dcc16	0.0036284975
116	0x3bab0940	0.0052196085
117	0x3ca0e9f6	0.019642811
118	0x3c552f2b	0.013011734
119	0xbc88b480	-0.016687632
120	0xbd230eb3	-0.03980894
121	0xbc1ab340	-0.009442151
122	0x3a6bc756	0.0008994242
123	0xbc906a16	-0.01762871
124	0x3cdfc6e8	0.027316526
125	0xbcb8e0d6	-0.022568148
126	0xbcfd6896	-0.03093366
127	0xbc81b4c3	-0.015833264
128	0xbcbcd9d8	-0.023053095
129	0xbd18332e	-0.037158184
130	0x3cd72da6	0.026266884
131	0x3d2997f0	0.041404665
132	0xbcb25708	-0.021770015
133	0xbced69de	-0.028981145
134	0x3c7550c0	0.014972866
135	0xbc9d1f4e	-0.019179966
136	0xbd128f90	-0.035781443
137	0xbd073b48	-0.03301552
138	0xbca3bfc8	-0.01998891
139	0xbd08c530	-0.033391178
140	0x3c2e81cb	0.010651062
141	0xbcac0d9b	-0.021002581
142	0x3d15252e	0.03641241
143	0x3d00320c	0.03129773
144	0xbd132e18	-0.03593263
145	0xbcf78f66	-0.030219745
146	0x3c9cfb76	0.019162875
147	0xbd1c6076	-0.03817793
148	0x3a94fc56	0.0011366706
149	0x3b23d56b	0.0024999033
150	0x3b08ffab	0.0020904343
151	0xbcf9f99b	-0.030514529
152	0x3c43bb50	0.011946514
153	0xbc77d780	-0.015127063
154	0xbd032344	-0.032016054
155	0xbcf6d8c3	-0.030132657
156	0xbd051d70	-0.032498777
157	0xbcffc946	-0.031223904
158	0x3d1827d2	0.03714735
159	0xbcc23776	-0.023708086
160	0xbd15c527	-0.036564972
161	0xbcd70e1e	-0.026251849
162	0xbcf6f918	-0.030148074
163	0x3d0ca14b	0.03433351
164	0xbd0bf4f2	-0.034169145
165	0xbd09cfbe	-0.033645384
166	0xbbf621eb	-0.0075113676
167	0x3d0856a4	0.033285752
168	0x3c0b074b	0.0084856255
169	0x3cd8b3db	0.02645295
170	0x3d02df5e	0.0319513
171	0xbc8de2e8	-0.017320111
172	0x3cf813c3	0.03028286
173	0x3ce70dd6	0.02820484
174	0x3b125fc0	0.0022334903
175	0xbc83086b	-0.015995225
176	0xbc1adc36	-0.009451916
177	0x3d22ed00	0.039776802
178	0x3c8abdf6	0.016936284
179	0xbd1bd680	-0.03804636
180	0xbc33fc06	-0.01098538
181	0xbccbadd6	-0.024863165
182	0x3cf541db	0.029938629
183	0xbc65a9c6	-0.014017528
184	0x3cd8d128	0.026466921
185	0x3be3036b	0.0069278977
186	0xbb1ee3eb	-0.0024244736
187	0x3c4fceab	0.012683551
188	0x3c7b21fb	0.015327926
189	0xbc263dcb	-0.0101465685
190	0xbc8d4c66	-0.017248344
191	0x3d2a32e7	0.04155245
192	0xbcb4bb23	-0.02206189
193	0xbd14836e	-0.036258154
194	0x3b8cc300	0.0042957067
195	0xbd0b4500	-0.03400135
196	0xbd1b894f	-0.037972745
197	0xbd14dab4	-0.036341384
198	0x3d0f2d7a	0.03495548
199	0x3c901326	0.017587256
200	0xbcb5577b	-0.02213644
201	0xbd1f796c	-0.038934156
202	0xbd27c93b	-0.040963393
203	0xbd122154	-0.035676315
204	0xbd097b82	-0.03356505
205	0xbbeb3af6	-0.0071786596
206	0xbc295186	-0.010334378
207	0xbd1ff504	-0.039052024
208	0x3d1509f7	0.036386456
209	0xbcc09e98	-0.023513123
210	0x3d05036c	0.032473966
211	0xbbf39396	-0.007433365
212	0xbc8f4f53	-0.01749388
213	0xbc6fb0fb	-0.014629598
214	0x3c069dab	0.008216302
215	0x3d0d916c	0.034562513
216	0x3c8c8310	0.01715234
217	0xbc401e5b	-0.011725987
218	0x3cc828a3	0.02443344
219	0x3d191dda	0.037381984
220	0x3c739ef0	0.014869437
221	0x3d2315d3	0.039815735
222	0x3d22d3fb	0.03975294
223	0xbbcc520b	-0.006235366
224	0xbccdff6e	-0.025146212
225	0x3ca92060	0.02064532
226	0x3b9f9640	0.004870206
227	0x3bd5fb40	0.0065301955
228	0x3d109223	0.035295617
229	0x3d234126	0.039857052
230	0x3ac95c00	0.0015362501
231	0x3cd5cd93	0.026099002
232	0xbce83668	-0.028346255
233	0x3d18a34e	0.037265114
234	0xbd0b14e6	-0.033955477
235	0xbd10a5eb	-0.03531448
236	0xbcba3c26	-0.02273376
237	0x3d0e69ca	0.034768857
238	0xbc892008	-0.016738907
239	0x3c7ae88b	0.015314232
240	0xbd08bd92	-0.033383913
241	0xb8839aab	-6.275376e-05
242	0x3d20e4ba	0.03928063
243	0x3c47453b	0.012162502
244	0x3d222abe	0.039591543
245	0x3ccf02f0	0.025269955
246	0xbcbf5fc3	-0.023361092
247	0xbb989540	-0.004656464
248	0x3be9522b	0.007120391
249	0x3b6f622b	0.0036527019
250	0xbadd1bd6	-0.0016869258
251	0x3d04a04e	0.03237944
252	0x3d291207	0.041276958
253	0xbc957553	-0.018244421
254	0xbce00c5e	-0.027349647
255	0x3a621356	0.0008624097

conv2.bias f4 [128]
0	0x3d01169b	0.0315157
1	0xbb1c1e56	-0.0023821793
2	0xbb00fe40	-0.0019682795
3	0xbac3422b	-0.0014897039
4	0xbd19ce72	-0.037550397
5	0x3c2728e6	0.010202622
6	0x3cd0992e	0.025463667
7	0xbc521836	-0.012823155
8	0xbc34f94b	-0.011045764
9	0x3d0d03ee	0.034427576
10	0xbbeb88e0	-0.0071879476
11	0xbc4b8110	-0.012420908
12	0xbcb11f96	-0.021621507
13	0x3c5b5c6b	0.013388733
14	0xbd1136f8	-0.035452813
15	0xbcf1c5d6	-0.02951328
16	0x3d269efa	0.040678956
17	0x3be7ab80	0.007070005
18	0xbcf6f1e0	-0.030144632
19	0x3c54f956	0.012998899
20	0x3ccd9258	0.025094196
21	0x3c1256a0	0.008931786
22	0x3c952048	0.01820387
23	0x3c84723e	0.016167756
24	0xbc974540	-0.018465638
25	0x3a4f4400	0.0007906556
26	0xbcd82b73	-0.026387906
27	0xbb671140	-0.0035258085
28	0xbcadac36	-0.02120028
29	0xbd03c90b	-0.03217415
30	0x3c2833db	0.01026627
31	0xbd13bdf7	-0.036069836
32	0xbd06cdb2	-0.03291101
33	0x3997b156	0.0002893309
34	0xbc4b6576	-0.012414327
35	0xbc92fffb	-0.017944327
36	0x3d108ca2	0.035290368
37	0x3c47404b	0.012161325
38	0x3d0fa274	0.035067037
39	0xbd0b96ac	-0.03407924
40	0xbc6df650	-0.0145240575
41	0x3d11be6c	0.03558199
42	0x3d1b1578	0.03786227
43	0xbce3c2fb	-0.027802935
44	0xbcad07c6	-0.02112187
45	0x3d1906e0	0.037360072
46	0xbd15eb60	-0.036601424
47	0xbc88ef8e	-0.016715791
48	0x3a096a56	0.00052419805
49	0x3d23f486	0.040028118
50	0x3cc74778	0.024326071
51	0x3bca3f2b	0.006172081
52	0xbcf30fe6	-0.029670667
53	0xbd1fc977	-0.03901049
54	0x3c95095e	0.018192943
55	0xbd1eddfe	-0.038785927
56	0xbcaaa066	-0.020828437
57	0xbd1a60cf	-0.03768998
58	0x3ca79f4e	0.020461705
59	0xbbb37856	-0.0054769916
60	0x3d221f36	0.039580546
61	0xba46ad00	-0.00075788796
62	0x39f18400	0.0004606545
63	0x3c39dbe0	0.011343926
64	0xbc4314f0	-0.011906847
65	0xbcb1d7ee	-0.021709409
66	0xbcf6cc78	-0.030126795
67	0x3d221452	0.03957016
68	0x3c9de023	0.019271916
69	0x3c8cadf0	0.017172784
70	0xbd1f4feb	-0.038894575
71	0xbc5b576b	-0.013387541
72	0xbc9bff4b	-0.019042632
73	0xbd211473	-0.039326143
74	0xbc9aa458	-0.018877193
75	0x3ca432be	0.020043727
76	0x3ce7b21e	0.028283175
77	0xbceae73b	-0.028674712
78	0xbb991bb6	-0.004672493
79	0xbc006cbb	-0.007838423
80	0x3c80e0ce	0.015732195
81	0xbca9f42b	-0.020746311
82	0x3ccf0aeb	0.02527376
83	0xbc42d4db	-0.011891569
84	0x3bf0bea0	0.007346943
85	0xbcd06d7b	-0.02544283
86	0xb8398aab	-4.423658e-05
87	0x3c165326	0.009175098
88	0x3c4c3536	0.012463858
89	0x3cd5fe26	0.026122164
90	0xbd24a6a4	-0.040197983
91	0xbb3cd696	-0.0028814427
92	0xbc02ca3b	-0.007982786
93	0xbd1c8fc6	-0.03822305
94	0x3c1f981b	0.009740855
95	0xbcb7c726	-0.022433829
96	0x3cb7cf2b	0.022437653
97	0x3c1c85fb	0.009553428
98	0x3c051b30	0.008124158
99	0xbd2454a0	-0.040119767
100	0xba189300	-0.00058202446
101	0xbcae7ba8	-0.021299198
102	0xbc9fad16	-0.019491713
103	0xbc62e580	-0.013848662
104	0xbc135790	-0.0089930445
105	0xbc3bf996	-0.01147308
106	0x3a7d4a00	0.0009662211
107	0x3ac4daab	0.0015018781
108	0x3c54d4c6	0.012990182
109	0xbcffec33	-0.031240558
110	0xbb66a8c0	-0.0035195798
111	0x3b9cd460	0.0047860593
112	0xbc27bda0	-0.010238081
113	0xbb7219ab	-0.0036941569
114	0x3c8ae576	0.016955119
115	0x3c15a546	0.009133643
116	0xbc4b3c20	-0.012404472
117	0xbce28c8b	-0.027654907
118	0x3c51fb2b	0.012816231
119	0xbd0defc0	-0.03465247
120	0xbca3f0f6	-0.02001236
121	0x3d26ef0b	0.040755313
122	0x3d211c78	0.03933379
123	0x3c8f2526	0.017473768
124	0x3cc07a38	0.023495778
125	0xbc735756	-0.0148523655
126	0xbc82365b	-0.01589506
127	0x3c1ae3ab	0.009453694

bn2.weight f4 [128]
0	0x3f800000	1.0
1	0x3f800000	1.0
2	0x3f800000	1.0
3	0x3f800000	1.0
4	0x3f800000	1.0
5	0x3f800000	1.0
6	0x3f800000	1.0
7	0x3f800000	1.0
8	0x3f800000	1.0
9	0x3f800000	1.0
10	0x3f800000	1.0
11	0x3f800000	1.0
12	0x3f800000	1.0
13	0x3f800000	1.0
14	0x3f800000	1.0
15	0x3f800000	1.0
16	0x3f800000	1.0
17	0x3f800000	1.0
18	0x3f800000	1.0
19	0x3f800000	1.0
20	0x3f800000	1.0
21	0x3f800000	1.0
22	0x3f800000	1.0
23	0x3f800000	1.0
24	0x3f800000	1.0
25	0x3f800000	1.0
26	0x3f800000	1.0
27	0x3f800000	1.0
28	0x3f800000	1.0
29	0x3f800000	1.0
30	0x3f800000	1.0
31	0x3f800000	1.0
32	0x3f800000	1.0
33	0x3f800000	1.0
34	0x3f800000	1.0
35	0x3f800000	1.0
36	0x3f800000	1.0
37	0x3f800000	1.0
38	0x3f800000	1.0
39	0x3f800000	1.0
40	0x3f800000	1.0
41	0x3f800000	1.0
42	0x3f800000	1.0
43	0x3f800000	1.0
44	0x3f800000	1.0
45	0x3f800000	1.0
46	0x3f800000	1.0
47	0x3f800000	1.0
48	0x3f800000	1.0
49	0x3f800000	1.0
50	0x3f800000	1.0
51	0x3f800000	1.0
52	0x3f800000	1.0
53	0x3f800000	1.0
54	0x3f800000	1.0
55	0x3f800000	1.0
56	0x3f800000	1.0
57	0x3f800000	1.0
58	0x3f800000	1.0
59	0x3f800000	1.0
60	0x3f800000	1.0
61	0x3f800000	1.0
62	0x3f800000	1.0
63	0x3f800000	1.0
64	0x3f800000	1.0
65	0x3f800000	1.0
66	0x3f800000	1.0
67	0x3f800000	1.0
68	0x3f800000	1.0
69	0x3f800000	1.0
70	0x3f800000	1.0
71	0x3f800000	1.0
72	0x3f800000	1.0
73	0x3f800000	1.0
74	0x3f800000	1.0
75	0x3f800000	1.0
76	0x3f800000	1.0
77	0x3f800000	1.0
78	0x3f800000	1.0
79	0x3f800000	1.0
80	0x3f800000	1.0
81	0x3f800000	1.0
82	0x3f800000	1.0
83	0x3f800000	1.0
84	0x3f800000	1.0
85	0x3f800000	1.0
86	0x3f800000	1.0
87	0x3f800000	1.0
88	0x3f800000	1.0
89	0x3f800000	1.0
90	0x3f800000	1.0
91	0x3f800000	1.0
92	0x3f800000	1.0
93	0x3f800000	1.0
94	0x3f800000	1.0
95	0x3f800000	1.0
96	0x3f800000	1.0
97	0x3f800000	1.0
98	0x3f800000	1.0
99	0x3f800000	1.0
100	0x3f800000	1.0
101	0x3f800000	1.0
102	0x3f800000	1.0
103	0x3f800000	1.0
104	0x3f800000	1.0
105	0x3f800000	1.0
106	0x3f800000	1.0
107	0x3f800000	1.0
108	0x3f800000	1.0
109	0x3f800000	1.0
110	0x3f800000	1.0
111	0x3f800000	1.0
112	0x3f800000	1.0
113	0x3f800000	1.0
114	0x3f800000	1.0
115	0x3f800000	1.0
116	0x3f800000	1.0
117	0x3f800000	1.0
118	0x3f800000	1.0
119	0x3f800000	1.0
120	0x3f800000	1.0
121	0x3f800000	1.0
122	0x3f800000	1.0
123	0x3f800000	1.0
124	0x3f800000	1.0
125	0x3f800000	1.0
126	0x3f800000	1.0
127	0x3f800000	1.0

bn2.bias f4 [128]
0	0x00000000	0.0
1	0x00000000	0.0
2	0x00000000	0.0
3	0x00000000	0.0
4	0x00000000	0.0
5	0x00000000	0.0
6	0x00000000	0.0
7	0x00000000	0.0
8	0x00000000	0.0
9	0x00000000	0.0
10	0x00000000	0.0
11	0x00000000	0.0
12	0x00000000	0.0
13	0x00000000	0.0
14	0x00000000	0.0
15	0x00000000	0.0
16	0x00000000	0.0
17	0x00000000	0.0
18	0x00000000	0.0
19	0x00000000	0.0
20	0x00000000	0.0
21	0x00000000	0.0
22	0x00000000	0.0
23	0x00000000	0.0
24	0x00000000	0.0
25	0x00000000	0.0
26	0x00000000	0.0
27	0x00000000	0.0
28	0x00000000	0.0
29	0x00000000	0.0
30	0x00000000	0.0
31	0x00000000	0.0
32	0x00000000	0.0
33	0x00000000	0.0
34	0x00000000	0.0
35	0x00000000	0.0
36	0x00000000	0.0
37	0x00000000	0.0
38	0x00000000	0.0
39	0x00000000	0.0
40	0x00000000	0.0
41	0x00000000	0.0
42	0x00000000	0.0
43	0x00000000	0.0
44	0x00000000	0.0
45	0x00000000	0.0
46	0x00000000	0.0
47	0x00000000	0.0
48	0x00000000	0.0
49	0x00000000	0.0
50	0x00000000	0.0
51	0x00000000	0.0
52	0x00000000	0.0
53	0x00000000	0.0
54	0x00000000	0.0
55	0x00000000	0.0
56	0x00000000	0.0
57	0x00000000	0.0
58	0x00000000	0.0
59	0x00000000	0.0
60	0x00000000	0.0
61	0x00000000	0.0
62	0x00000000	0.0
63	0x00000000	0.0
64	0x00000000	0.0
65	0x00000000	0.0
66	0x00000000	0.0
67	0x00000000	0.0
68	0x00000000	0.0
69	0x00000000	0.0
70	0x00000000	0.0
71	0x00000000	0.0
72	0x00000000	0.0
73	0x00000000	0.0
74	0x00000000	0.0
75	0x00000000	0.0
76	0x00000000	0.0
77	0x00000000	0.0
78	0x00000000	0.0
79	0x00000000	0.0
80	0x00000000	0.0
81	0x00000000	0.0
82	0x00000000	0.0
83	0x00000000	0.0
84	0x00000000	0.0
85	0x00000000	0.0
86	0x00000000	0.0
87	0x00000000	0.0
88	0x00000000	0.0
89	0x00000000	0.0
90	0x00000000	0.0
91	0x00000000	0.0
92	0x00000000	0.0
93	0x00000000	0.0
94	0x00000000	0.0
95	0x00000000	0.0
96	0x00000000	0.0
97	0x00000000	0.0
98	0x00000000	0.0
99	0x00000000	0.0
100	0x00000000	0.0
101	0x00000000	0.0
102	0x00000000	0.0
103	0x00000000	0.0
104	0x00000000	0.0
105	0x00000000	0.0
106	0x00000000	0.0
107	0x00000000	0.0
108	0x00000000	0.0
109	0x00000000	0.0
110	0x00000000	0.0
111	0x00000000	0.0
112	0x00000000	0.0
113	0x00000000	0.0
114	0x00000000	0.0
115	0x00000000	0.0
116	0x00000000	0.0
117	0x00000000	0.0
118	0x00000000	0.0
119	0x00000000	0.0
120	0x00000000	0.0
121	0x00000000	0.0
122	0x00000000	0.0
123	0x00000000	0.0
124	0x00000000	0.0
125	0x00000000	0.0
126	0x00000000	0.0
127	0x00000000	0.0

bn2.running_mean f4 [128]
0	0x00000000	0.0
1	0x00000000	0.0
2	0x00000000	0.0
3	0x00000000	0.0
4	0x00000000	0.0
5	0x00000000	0.0
6	0x00000000	0.0
7	0x00000000	0.0
8	0x00000000	0.0
9	0x00000000	0.0
10	0x00000000	0.0
11	0x00000000	0.0
12	0x00000000	0.0
13	0x00000000	0.0
14	0x00000000	0.0
15	0x00000000	0.0
16	0x00000000	0.0
17	0x00000000	0.0
18	0x00000000	0.0
19	0x00000000	0.0
20	0x00000000	0.0
21	0x00000000	0.0
22	0x00000000	0.0
23	0x00000000	0.0
24	0x00000000	0.0
25	0x00000000	0.0
26	0x00000000	0.0
27	0x00000000	0.0
28	0x00000000	0.0
29	0x00000000	0.0
30	0x00000000	0.0
31	0x00000000	0.0
32	0x00000000	0.0
33	0x00000000	0.0
34	0x00000000	0.0
35	0x00000000	0.0
36	0x00000000	0.0
37	0x00000000	0.0
38	0x00000000	0.0
39	0x00000000	0.0
40	0x00000000	0.0
41	0x00000000	0.0
42	0x00000000	0.0
43	0x00000000	0.0
44	0x00000000	0.0
45	0x00000000	0.0
46	0x00000000	0.0
47	0x00000000	0.0
48	0x00000000	0.0
49	0x00000000	0.0
50	0x00000000	0.0
51	0x00000000	0.0
52	0x00000000	0.0
53	0x00000000	0.0
54	0x00000000	0.0
55	0x00000000	0.0
56	0x00000000	0.0
57	0x00000000	0.0
58	0x00000000	0.0
59	0x00000000	0.0
60	0x00000000	0.0
61	0x00000000	0.0
62	0x00000000	0.0
63	0x00000000	0.0
64	0x00000000	0.0
65	0x00000000	0.0
66	0x00000000	0.0
67	0x00000000	0.0
68	0x00000000	0.0
69	0x00000000	0.0
70	0x00000000	0.0
71	0x00000000	0.0
72	0x00000000	0.0
73	0x00000000	0.0
74	0x00000000	0.0
75	0x00000000	0.0
76	0x00000000	0.0
77	0x00000000	0.0
78	0x00000000	0.0
79	0x00000000	0.0
80	0x00000000	0.0
81	0x00000000	0.0
82	0x00000000	0.0
83	0x00000000	0.0
84	0x00000000	0.0
85	0x00000000	0.0
86	0x00000000	0.0
87	0x00000000	0.0
88	0x00000000	0.0
89	0x00000000	0.0
90	0x00000000	0.0
91	0x00000000	0.0
92	0x00000000	0.0
93	0x00000000	0.0
94	0x00000000	0.0
95	0x00000000	0.0
96	0x00000000	0.0
97	0x00000000	0.0
98	0x00000000	0.0
99	0x00000000	0.0
100	0x00000000	0.0
101	0x00000000	0.0
102	0x00000000	0.0
103	0x00000000	0.0
104	0x00000000	0.0
105	0x00000000	0.0
106	0x00000000	0.0
107	0x00000000	0.0
108	0x00000000	0.0
109	0x00000000	0.0
110	0x00000000	0.0
111	0x00000000	0.0
112	0x00000000	0.0
113	0x00000000	0.0
114	0x00000000	0.0
115	0x00000000	0.0
116	0x00000000	0.0
117	0x00000000	0.0
118	0x00000000	0.0
119	0x00000000	0.0
120	0x00000000	0.0
121	0x00000000	0.0
122	0x00000000	0.0
123	0x00000000	0.0
124	0x00000000	0.0
125	0x00000000	0.0
126	0x00000000	0.0
127	0x00000000	0.0

bn2.running_var f4 [128]
0	0x3f800000	1.0
1	0x3f800000	1.0
2	0x3f800000	1.0
3	0x3f800000	1.0
4	0x3f800000	1.0
5	0x3f800000	1.0
6	0x3f800000	1.0
7	0x3f800000	1.0
8	0x3f800000	1.0
9	0x3f800000	1.0
10	0x3f800000	1.0
11	0x3f800000	1.0
12	0x3f800000	1.0
13	0x3f800000	1.0
14	0x3f800000	1.0
15	0x3f800000	1.0
16	0x3f800000	1.0
17	0x3f800000	1.0
18	0x3f800000	1.0
19	0x3f800000	1.0
20	0x3f800000	1.0
21	0x3f800000	1.0
22	0x3f800000	1.0
23	0x3f800000	1.0
24	0x3f800000	1.0
25	0x3f800000	1.0
26	0x3f800000	1.0
27	0x3f800000	1.0
28	0x3f800000	1.0
29	0x3f800000	1.0
30	0x3f800000	1.0
31	0x3f800000	1.0
32	0x3f800000	1.0
33	0x3f800000	1.0
34	0x3f800000	1.0
35	0x3f800000	1.0
36	0x3f800000	1.0
37	0x3f800000	1.0
38	0x3f800000	1.0
39	0x3f800000	1.0
40	0x3f800000	1.0
41	0x3f800000	1.0
42	0x3f800000	1.0
43	0x3f800000	1.0
44	0x3f800000	1.0
45	0x3f800000	1.0
46	0x3f800000	1.0
47	0x3f800000	1.0
48	0x3f800000	1.0
49	0x3f800000	1.0
50	0x3f800000	1.0
51	0x3f800000	1.0
52	0x3f800000	1.0
53	0x3f800000	1.0
54	0x3f800000	1.0
55	0x3f800000	1.0
56	0x3f800000	1.0
57	0x3f800000	1.0
58	0x3f800000	1.0
59	0x3f800000	1.0
60	0x3f800000	1.0
61	0x3f800000	1.0
62	0x3f800000	1.0
63	0x3f800000	1.0
64	0x3f800000	1.0
65	0x3f800000	1.0
66	0x3f800000	1.0
67	0x3f800000	1.0
68	0x3f800000	1.0
69	0x3f800000	1.0
70	0x3f800000	1.0
71	0x3f800000	1.0
72	0x3f800000	1.0
73	0x3f800000	1.0
74	0x3f800000	1.0
75	0x3f800000	1.0
76	0x3f800000	1.0
77	0x3f800000	1.0
78	0x3f800000	1.0
79	0x3f800000	1.0
80	0x3f800000	1.0
81	0x3f800000	1.0
82	0x3f800000	1.0
83	0x3f800000	1.0
84	0x3f800000	1.0
85	0x3f800000	1.0
86	0x3f800000	1.0
87	0x3f800000	1.0
88	0x3f800000	1.0
89	0x3f800000	1.0
90	0x3f800000	1.0
91	0x3f800000	1.0
92	0x3f800000	1.0
93	0x3f800000	1.0
94	0x3f800000	1.0
95	0x3f800000	1.0
96	0x3f800000	1.0
97	0x3f800000	1.0
98	0x3f800000	1.0
99	0x3f800000	1.0
100	0x3f800000	1.0
101	0x3f800000	1.0
102	0x3f800000	1.0
103	0x3f800000	1.0
104	0x3f800000	1.0
105	0x3f800000	1.0
106	0x3f800000	1.0
107	0x3f800000	1.0
108	0x3f800000	1.0
109	0x3f800000	1.0
110	0x3f800000	1.0
111	0x3f800000	1.0
112	0x3f800000	1.0
113	0x3f800000	1.0
114	0x3f800000	1.0
115	0x3f800000	1.0
116	0x3f800000	1.0
117	0x3f800000	1.0
118	0x3f800000	1.0
119	0x3f800000	1.0
120	0x3f800000	1.0
121	0x3f800000	1.0
122	0x3f800000	1.0
123	0x3f800000	1.0
124	0x3f800000	1.0
125	0x3f800000	1.0
126	0x3f800000	1.0
127	0x3f800000	1.0

fc1.weight f4 [512, 128]
0	0xbd693b83	-0.05694152
1	0xbd996a9c	-0.07491037
2	0x3d395eee	0.045256548
3	0xbd0de52b	-0.03464238
4	0xbd7547db	-0.05988298
5	0xbd415516	-0.047200285
6	0xbc973596	-0.018458169
7	0xbd508879	-0.0509114
8	0x3d4a7956	0.04943212
9	0xbd0b2fa4	-0.03398098
10	0xbd6c1bff	-0.057643887
11	0x3d10e2b6	0.03537246
12	0xbd746617	-0.059667673
13	0x3dae2fe3	0.085052274
14	0xbd43693b	-0.047707777
15	0xbd81426d	-0.06311498
16	0x3d16106d	0.03663676
17	0xbd23651c	-0.039891347
18	0x3d291511	0.041279856
19	0x3d30b8de	0.043145053
20	0x3dadc4bf	0.08484792
21	0xbd287b42	-0.041133173
22	0x3cd16728	0.025561884
23	0xbd9704bb	-0.07373949
24	0x3d1669dd	0.036722053
25	0xbc4960c5	-0.012291138
26	0xbd81c102	-0.063356414
27	0x3cff5a79	0.03117107
28	0xbd93b36b	-0.07211956
29	0xbd88a714	-0.066724926
30	0xbd5bcc16	-0.05366143
31	0x3b42d942	0.0029731547
32	0xbda1ec38	-0.07906383
33	0xbd2eca4d	-0.042673398
34	0xbd4be3c8	-0.049777776
35	0x3d8c8be8	0.068626225
36	0xbda7b512	-0.08188833
37	0x3d47bbf1	0.04876322
38	0xbd762d5e	-0.06010186
39	0xbd88683c	-0.06660506
40	0xbdaa7c37	-0.08324473
41	0xbd4a9aec	-0.04946415
42	0xbd03f130	-0.032212436
43	0x3d52a977	0.051431146
44	0x3d9938d9	0.07481546
45	0xbcc5c2ca	-0.024140734
46	0xbd639a70	-0.055567205
47	0x3d9b2575	0.07575504
48	0x3cf8ca6f	0.030369965
49	0xbc1a95fb	-0.009435172
50	0xbd2a8f07	-0.041640308
51	0x3d2493f9	0.04018018
52	0x3d8ae524	0.06781986
53	0xbc838089	-0.016052501
54	0x3d278c12	0.040905066
55	0x3d800d18	0.062524974
56	0x3b9ad9a5	0.0047256523
57	0xbc06ef01	-0.008235694
58	0x3d6012c1	0.054705385
59	0x3d5d92d3	0.0540951
60	0x3da20b48	0.07912308
61	0x3da1cc4c	0.07900295
62	0xbc87be52	-0.016570244
63	0x3d3ed7e0	0.046592593
64	0xbca89beb	-0.02058216
65	0xbd5fd206	-0.054643653
66	0x3d85c349	0.06531388
67	0xbd8ab2e3	-0.06772401
68	0xbc9c765a	-0.019099403
69	0x3ccd7ba9	0.02508338
70	0x3d858cda	0.06521006
71	0xbb9f35b9	-0.004858699
72	0x3d0e785b	0.03478275
73	0xbd820ac5	-0.063497104
74	0xbb1968b6	-0.002340836
75	0x3db03c2d	0.086052276
76	0xbd3211bd	-0.043473948
77	0x3d141139	0.036149237
78	0x3d990294	0.07471195
79	0x3c21cdbd	0.009875712
80	0xbd9c2f80	-0.076262474
81	0x3cbbae12	0.022910152
82	0xbc64c766	-0.013963556
83	0xbd442b2d	-0.047892738
84	0x3d875df4	0.06609717
85	0xbce8a7b7	-0.028400285
86	0xbd66e7f3	-0.056373548
87	0x3c68df1c	0.01421335
88	0x3c384fbb	0.011249478
89	0xbca7d226	-0.020485949
90	0x3b39685d	0.0028290965
91	0x3d3df4c8	0.04637602
92	0xbd1394ed	-0.0360307
93	0x3d80c869	0.06288225
94	0xbd9f24d7	-0.077706985
95	0xbce7321e	-0.02822214
96	0x3c7ed00f	0.015552535
97	0x3dac5fe0	0.08416724
98	0xbd5ccc3f	-0.05390572
99	0xbc355d29	-0.011069574
100	0xbd800150	-0.0625025
101	0xbd276208	-0.040864974
102	0x3ce930b2	0.028465603
103	0xbd90a0b2	-0.070619
104	0x3d9bba48	0.0760389
105	0xbd9d2159	-0.07672376
106	0xbce0c81b	-0.027439168
107	0xbdaa688e	-0.083207235
108	0xbd4b0681	-0.04956675
109	0x3c251973	0.010076868
110	0xbc4bd481	-0.012440802
111	0xbd88268b	-0.066479765
112	0xbd481c65	-0.048855204
113	0xbd7728d5	-0.060341675
114	0xbd609a30	-0.054834545
115	0xbd8e7ff0	-0.06957996
116	0xbd8d44bc	-0.06897876
117	0xbd04bbeb	-0.032405775
118	0xbd127275	-0.035753686
119	0xbbc5143f	-0.0060143764
120	0x3da81794	0.08207622
121	0xbd9a81f3	-0.07544317
122	0x3da379fb	0.0798225
123	0xbd97b68f	-0.07407867
124	0xbd921c97	-0.07134359
125	0xbc003c3a	-0.007826859
126	0xbd752135	-0.05984612
127	0x3d8fdacb	0.07024153
128	0xbd6976c9	-0.056998048
129	0x3bd0ecc3	0.0063758804
130	0x3d453216	0.04814347
131	0x3d106bbe	0.035259
132	0x3d557b25	0.052119393
133	0xbd9e33b2	-0.07724704
134	0x3d141d87	0.036160972
135	0x3b95af44	0.0045680124
136	0x3d791e20	0.060819745
137	0xbd32ef45	-0.043685216
138	0x3d69edb3	0.057111453
139	0xbd01776e	-0.031608038
140	0x3d5d036d	0.053958345
141	0x3d97edca	0.074184015
142	0xbd43a2ed	-0.0477628
143	0x3d7c8931	0.061654273
144	0x3b2d03c1	0.0026399943
145	0x3b938dff	0.0045030112
146	0xbd446849	-0.047951017
147	0xbd362ceb	-0.04447643
148	0x3cb36bc7	0.021901978
149	0xbd40d4b7	-0.04707786
150	0x3cf6b8c4	0.0301174
151	0x3d903f0a	0.07043274
152	0x3db2f574	0.08738223
153	0xbd8de8aa	-0.06929143
154	0xbd6e791a	-0.05822096
155	0x3dad2f0c	0.08456239
156	0x3c48155b	0.012212123
157	0x3b09f445	0.0021050137
158	0x3baee151	0.0053369184
159	0x3caaeb64	0.020864196
160	0xbd56eeb8	-0.052473754
161	0xbd8055c5	-0.06266359
162	0x3d2f5392	0.04280431
163	0xbd67a55b	-0.05655418
164	0xbd73046d	-0.059330393
165	0xbd338a40	-0.043833017
166	0xbbb63819	-0.0055608866
167	0xbd92c824	-0.0716708
168	0x3d5c4761	0.05377901
169	0xbd909904	-0.070604354
170	0xbb820466	-0.0039678095
171	0x3d74025d	0.059572566
172	0x3cce6f86	0.025199663
173	0xbda5b61a	-0.08091374
174	0xbda02457	-0.07819431
175	0xbd88bee7	-0.06677037
176	0x3d80b5f4	0.06284705
177	0xbd9df3c6	-0.07712512
178	0xbc4fba02	-0.012678625
179	0xbca8ec00	-0.020620346
180	0x3d8117e6	0.063033864
181	0xbda1be1d	-0.07897589
182	0xbd4ef999	-0.050531004
183	0x3d9aea3b	0.07564207
184	0x3cfc4a18	0.03079705
185	0x3d516703	0.05112363
186	0xbd026346	-0.031832956
187	0x3d462621	0.048376206
188	0x3db0ca63	0.08632352
189	0x3c899114	0.016792811
190	0x3d520e6c	0.051283285
191	0x3c8aa1cd	0.016922856
192	0x3d0d4089	0.034485374
193	0x3af00684	0.0018312489
194	0x3d9c150f	0.07621204
195	0xbd8aef25	-0.067838944
196	0x3c835069	0.016029553
197	0xbda9a3fc	-0.08283231
198	0x3ba678f9	0.005080339
199	0xbd7edb05	-0.062220592
200	0xbd8f9562	-0.070109144
201	0xbd99d6c8	-0.075116694
202	0x3d28ab03	0.041178714
203	0x3d562635	0.05228253
204	0x3cdf6e44	0.027274258
205	0x3d017569	0.03160611
206	0x3d17a662	0.03702391
207	0xbcb0f9f2	-0.021603558
208	0x3d42861b	0.047491174
209	0x3d7afb94	0.06127508
210	0x3da5ba20	0.08092141
211	0xbd9b856a	-0.07593806
212	0x3d9aaf22	0.07552935
213	0xbd9405cf	-0.072276704
214	0xbcaa025b	-0.020753076
215	0xbd813cbb	-0.063104115
216	0x3bf1c0a3	0.0073777004
217	0xbd853c03	-0.06505587
218	0x3d4d7d00	0.050168037
219	0xbd913e7f	-0.07091998
220	0x3d93baf4	0.07213393
221	0xbdb40d6c	-0.087916225
222	0x3d897f6a	0.067137554
223	0x3ce7038a	0.02819993
224	0x3c306837	0.010767034
225	0xbd34783c	-0.044059977
226	0xbd93ef7a	-0.07223411
227	0xbc9ecf3c	-0.019385926
228	0xbd04434d	-0.032290746
229	0xbbeedc79	-0.007289466
230	0xbd204ded	-0.039136816
231	0xbc84a547	-0.016192092
232	0xbc906697	-0.017627044
233	0xbd5e3f1a	-0.054259397
234	0x3da94cf3	0.0826663
235	0x3d149cc6	0.036282323
236	0xbcd2323a	-0.025658716
237	0x3d1c3a01	0.038141254
238	0x3cd70914	0.026249446
239	0x3d2f8a9a	0.04285679
240	0xbce70b95	-0.028203765
241	0xbd8a6656	-0.067578
242	0x3d508260	0.050905585
243	0xbc46b932	-0.012129115
244	0xbc177310	-0.009243742
245	0xbc41e24d	-0.0118337395
246	0xbcf89747	-0.030345572
247	0xbd50cc44	-0.050976053
248	0xbd1d7642	-0.038442858
249	0xbd9c4d3e	-0.0763192
250	0xbd547803	-0.051872265
251	0x3cba2f81	0.02272773
252	0xbd4998ce	-0.04921799
253	0xbd3c4301	-0.045962337
254	0x3c9cb1f2	0.01912782
255	0xbdad48e5	-0.08461169

fc1.bias f4 [512]
0	0xbd4e4ecd	-0.05036812
1	0xbd654e2e	-0.05598276
2	0xbd0800b3	-0.03320379
3	0x3d7bdf0e	0.06149202
4	0x3d52c3ea	0.05145637
5	0xbcb382b7	-0.021912916
6	0x3c36ff10	0.01116921
7	0xbd94c480	-0.07264042
8	0xbd558e80	-0.05213785
9	0xbd589893	-0.05287988
10	0x3baa5171	0.005197697
11	0x3d43343e	0.047657244
12	0x3d81a114	0.06329551
13	0x3ccb5f52	0.024825726
14	0x3ccabbe4	0.024747796
15	0x3da4a1bf	0.08038663
16	0x3db2056c	0.086924404
17	0xbd5866c4	-0.05283238
18	0x3b1f1c88	0.002427848
19	0xbdad3840	-0.084579945
20	0xbd9de8a7	-0.077103905
21	0xbd8dba40	-0.0692029
22	0xbc96e286	-0.018418562
23	0x3cf35e73	0.029708123
24	0x3d864e1c	0.06557867
25	0xbd68c668	-0.05682984
26	0x3d8bd6d4	0.068280846
27	0x3d151a46	0.03640201
28	0x3cdf4ccf	0.027258305
29	0x3d94eaba	0.07271333
30	0x3d2e6680	0.04257822
31	0x3daaa0b8	0.08331436
32	0x3d63793a	0.055535533
33	0xbd914a12	-0.07094206
34	0x3da22d03	0.079187416
35	0xbd61323a	-0.05497954
36	0x3d64ffcd	0.055908013
37	0x3da44b59	0.08022184
38	0x3b466ff7	0.0030279139
39	0x3d99d9ae	0.07512222
40	0x3ce81aa0	0.028333008
41	0x3cbfe518	0.02342467
42	0x3c6de1ac	0.014519136
43	0xbd86e47b	-0.06586548
44	0xbd8ff4ae	-0.07029091
45	0xbd90c16c	-0.07068142
46	0xbd9120d5	-0.0708634
47	0xbd69bd11	-0.057065073
48	0xbc469a20	-0.012121707
49	0xbdb2c3a1	-0.087287195
50	0xbdace241	-0.08441592
51	0x3c8d04f6	0.01721428
52	0x3cf529b1	0.029927107
53	0x3d70dd89	0.058805022
54	0xbb64a6a7	-0.0034889372
55	0x3db222ff	0.08698081
56	0x3d6b2fe3	0.057418715
57	0xbd8c3e41	-0.068478115
58	0xbda3354f	-0.07969152
59	0x3bfb1062	0.007661865
60	0xbbaa56ec	-0.00519835
61	0x3db04752	0.08607353
62	0xbd0c872c	-0.034308597
63	0x3d5e74c1	0.054310564
64	0x3d8f5550	0.06998694
65	0xbc9c8237	-0.01910506
66	0x3d3becdf	0.045880195
67	0x3bfb1b14	0.00766314
68	0xbd362351	-0.044467274
69	0x3d10fcfc	0.035397515
70	0xbd5b391f	-0.05352127
71	0xbd5f85ad	-0.054570843
72	0xbdad5ca5	-0.08464936
73	0x3d3a0a48	0.04541996
74	0x3db106d2	0.08643879
75	0x3d96aac5	0.073567905
76	0x3d21aff7	0.039474454
77	0x3b6ddc25	0.0036294546
78	0x3d469147	0.04847839
79	0xbd9fc2ec	-0.0780085
80	0xbd885644	-0.06657079
81	0x3d0f63fd	0.035007466
82	0xbd85d484	-0.06534675
83	0xbd7e96ac	-0.06215541
84	0xbd04f2b5	-0.032458026
85	0xbda07ed9	-0.07836694
86	0xbd28cc4a	-0.04121045
87	0xbcdc0d46	-0.026861798
88	0x3d0667ce	0.03281384
89	0xbd61bf1b	-0.055113893
90	0x3d22e6ce	0.039770894
91	0xbd0edb24	-0.034876958
92	0x3d19c749	0.03754357
93	0xbd4f0ffc	-0.050552353
94	0x3a3c5bbb	0.00071853
95	0x3d4ccd26	0.050000332
96	0xbd1c32b6	-0.0381343
97	0xbcc2f601	-0.023798944
98	0xbdb3be65	-0.08776549
99	0xbd4a416b	-0.049378794
100	0x3d4c75bc	0.049916968
101	0xbd094595	-0.033513624
102	0x3cd9be2d	0.02657994
103	0xbbaf0f1a	-0.0053423764
104	0xbd68bc7f	-0.05682039
105	0x3d3d5601	0.046224598
106	0x3c56b13e	0.013103781
107	0xbda0a77b	-0.07844444
108	0x3d8d254e	0.06891881
109	0x3c91f232	0.017815683
110	0xbd0f659d	-0.035009015
111	0x3dab764f	0.08372175
112	0xbd844a23	-0.06459453
113	0x3c60e119	0.013725542
114	0x3d3bb0f7	0.045823064
115	0x3be6ff84	0.007049503
116	0xbda8ce4a	-0.082424715
117	0xbd196152	-0.037446328
118	0x3d9d5b97	0.07683485
119	0xbd65017e	-0.055909626
120	0xbca99384	-0.020700224
121	0x3d91455a	0.07093306
122	0xbd8e164d	-0.06937847
123	0x3d95bf3f	0.07311868
124	0x3d9a8b18	0.07546061
125	0xbd99a06b	-0.075013004
126	0x3d062c65	0.03275718
127	0x3ad404cf	0.001617575
128	0x3d23c6cd	0.039984513
129	0x3d2bb2e8	0.041918665
130	0x3bafab49	0.005360995
131	0xbd2aeea4	-0.04173149
132	0x3d4b3b50	0.04961711
133	0xbd225047	-0.03962734
134	0xbda864ea	-0.08222373
135	0xbdadce58	-0.084866226
136	0xbd45dbc0	-0.048305273
137	0x3d4ee912	0.050515242
138	0xbc2a3966	-0.010389661
139	0x3da86811	0.08222974
140	0xbd9710a6	-0.07376222
141	0x3d6833fb	0.056690197
142	0xbd6a4f15	-0.057204325
143	0xbda2bbba	-0.07945962
144	0xbd6f3d45	-0.05840804
145	0x3d5a9f6a	0.053374685
146	0xbd737f1e	-0.0594474
147	0xbccbeb05	-0.02489234
148	0xbd96edfd	-0.073696114
149	0x3d44b53a	0.048024394
150	0xbd05947d	-0.032612313
151	0xbc57f74f	-0.013181522
152	0xbd6f9dfd	-0.05850028
153	0xbc9713d3	-0.01844207
154	0xbcfd319b	-0.030907443
155	0xbda08d74	-0.0783948
156	0xbc8fb7fb	-0.017543783
157	0x3d9a6e51	0.075405724
158	0xbd74bd5c	-0.0597509
159	0x3ca427d2	0.020038519
160	0xbbefe505	-0.0073210024
161	0xbcefd1af	-0.02927479
162	0xbd58fb67	-0.05297413
163	0xbcfd5b91	-0.030927451
164	0x3c0afa08	0.008482464
165	0xbd94e644	-0.07270482
166	0x3cf63133	0.030052757
167	0x3d91cb02	0.07118799
168	0x3d87517d	0.066073395
169	0x3c03e415	0.008049984
170	0x3cc8ee92	0.024527822
171	0xbb734f44	-0.0037126103
172	0xbd56fb8e	-0.052485995
173	0x3c981152	0.018562946
174	0xbda0b101	-0.07846261
175	0x3cb06edd	0.021537239
176	0x3d796780	0.06088972
177	0x3d4c5516	0.04988583
178	0xbd144822	-0.036201604
179	0x3d384000	0.04498291
180	0x3d8074c0	0.06272268
181	0xbd814d94	-0.06313625
182	0x3d838101	0.0642109
183	0xbd9b7606	-0.075908706
184	0x3d8d8fbf	0.06912183
185	0xbd9b6113	-0.07586875
186	0x3c9d30bd	0.01918828
187	0x3d4d3964	0.05010356
188	0xbda7c054	-0.081909806
189	0x3ccf1207	0.02527715
190	0xbd290163	-0.041261088
191	0xbcfb6980	-0.030689955
192	0xbb7c72e8	-0.0038520638
193	0xbd1a5028	-0.0376741
194	0xbd1ef77a	-0.03881023
195	0xbcd0a5b8	-0.025469646
196	0x3d9c1ff5	0.07623283
197	0xbd974bb8	-0.07387489
198	0x3b8e573f	0.0043438966
199	0xbb5c1919	-0.0033584295
200	0xbd9b2acb	-0.075765215
201	0x3da68dce	0.08132516
202	0x3d8624dc	0.06549999
203	0x3da6793b	0.081285916
204	0xbd4a6b4e	-0.04941874
205	0xbd55887b	-0.05213211
206	0x3d81c8f0	0.06337154
207	0xbdb3a2ac	-0.087712616
208	0x3bd1dd44	0.0064045507
209	0x3db41c25	0.08794431
210	0x3cc0770c	0.023494266
211	0x3d5d1104	0.053971305
212	0x3da5022b	0.08057054
213	0xbdaf5eec	-0.08563027
214	0x3d953125	0.07284764
215	0x3d6b84f6	0.05749985
216	0xbd317216	-0.04332169
217	0x3d1c4121	0.03814805
218	0x3d4d9ac9	0.050196443
219	0xbd3826e0	-0.04495895
220	0xbc83ae85	-0.016074428
221	0xbcb0d07d	-0.02158379
222	0xbc556777	-0.013025156
223	0xbc8fe6a6	-0.017566036
224	0xbd5c99cd	-0.053857613
225	0xbda17b98	-0.07884902
226	0x3cf8eb45	0.030385623
227	0xbda31fed	-0.07965074
228	0xbd9c5de5	-0.076350965
229	0xbcc7a6a1	-0.024371447
230	0xbda794c8	-0.08182675
231	0x3d5b431e	0.053530805
232	0x3d4df1f0	0.050279558
233	0x3cd593e2	0.026071493
234	0x3d84aa44	0.06477788
235	0xbd9161c4	-0.070987254
236	0xbcf6b1d9	-0.030114101
237	0xbd6fd04d	-0.05854826
238	0x3ca0c8e2	0.019627038
239	0x3b8700a4	0.0041199494
240	0x3c6835fb	0.014173026
241	0x3cfb28d8	0.030659124
242	0xbcd04f5d	-0.025428468
243	0x39503e32	0.00019859595
244	0x3d504486	0.0508466
245	0x3daffec4	0.085935146
246	0x3d66cd85	0.056348342
247	0xbc4ba285	-0.012428884
248	0xbd2b59f4	-0.041833833
249	0x3d49b4dc	0.049244747
250	0x3c613ac5	0.013746922
251	0x3bfd5ad7	0.007731776
252	0x3da2c555	0.07947794
253	0x3d135e80	0.035978794
254	0xbda975af	-0.082743995
255	0xbd7dcc49	-0.0619624
